policy0.005.pth (torch, 8159 bytes, 4 tensors)

actor_common.weight f4 [128, 8]
000000 5b 11 41 be d0 3b 2b be 74 88 88 be ce 3c 96 3d
       -0.18854277 -0.16722035 -0.26666605 0.07335816
000010 32 87 1d 3d f2 ca 97 be 3e 67 f9 be 34 97 05 3e
       0.03845901 -0.29647022 -0.4871158 0.1304596
000020 12 fb 12 be 7d 8a 16 3e 44 bb bb 3a e2 42 34 bf
       -0.14353588 0.14701267 0.0014322777 -0.70414555
000030 72 29 67 3f 98 5c 14 3f c8 11 df bd eb be 41 bd
       0.90297616 0.57953787 -0.108920634 -0.047301214
000040 dc 97 b6 bd 8f 6d f2 bd 99 6d 86 bc 43 b4 30 bf
       -0.089156836 -0.11837303 -0.016409682 -0.6902506
000050 7b cb 7b bd e1 cd 2c 3e 78 61 51 be c4 ac 10 3e
       -0.06147335 0.16875412 -0.20447338 0.14128405
000060 a1 55 84 3d 5a cf 14 bf bc e5 42 be 54 b2 e0 3c
       0.06461645 -0.58128893 -0.19032949 0.027428783
000070 35 76 47 3e 4f ef 36 3e d2 58 ad 3e 77 fc fe 3e
       0.19478686 0.17864726 0.33856827 0.4980199
000080 a7 f5 92 be 82 07 bf 3d 4d 73 2d 3d 2a 2b 46 bf
       -0.28703043 0.09327604 0.042346288 -0.77409613
000090 24 d0 3c 3f 7c 5b ab 3e 4d e8 46 be 32 45 c7 3d
       0.737551 0.33468235 -0.19424553 0.09729995
0000a0 41 6b 9d 3e 69 7b 7d bd bf 60 cd 3e b0 81 1a be
       0.3074589 -0.06188527 0.40112874 -0.15088534
0000b0 36 49 e8 3e 83 cb e2 be b3 f0 d4 be 74 7c 41 be
       0.45368356 -0.44295892 -0.4158989 -0.18895131
0000c0 bd 1e 41 bc 81 73 a1 be d7 ea 9b bc ba ce f6 3e
       -0.011787114 -0.31533435 -0.019032879 0.48204595
0000d0 41 35 c4 3e 60 dc 88 bd ee e1 d7 bc 19 84 b4 3e
       0.3832188 -0.06682658 -0.026352849 0.35257033
0000e0 31 d9 f0 3d f5 29 bd 3d 15 bc c9 3e e9 22 ec be
       0.11760176 0.09236518 0.39401308 -0.46120384
0000f0 8b e1 40 bf 5c 53 1a bd 1a 42 49 be ee 2c ad 3e
       -0.7534415 -0.037677154 -0.19654122 0.3382334
000100 4f 5e ed 3c a3 b4 94 3e 9b 33 17 be ff a2 21 3f
       0.028975634 0.29044065 -0.1476578 0.6313934
000110 c2 22 08 3f 3d 23 45 3e b6 e3 1c 3f cb 6c c0 3e
       0.53178036 0.19251724 0.6128496 0.37583002
000120 44 7b 44 bd 40 ef e0 3e 51 09 82 3e 3d 35 e5 3e
       -0.047969118 0.43932533 0.25397733 0.4476718
000130 26 0c 18 bf 78 c6 ba bd cb 3b 11 3e a6 dc 92 be
       -0.5939354 -0.09119886 0.14182965 -0.28683966
000140 11 2e 31 bd 66 fe 73 be b6 f5 4e 3d c1 14 51 3d
       -0.043256823 -0.23827514 0.050527297 0.051045183
000150 39 a3 c8 3e 96 9b 91 3e 69 f8 89 be df 90 25 3e
       0.3918703 0.28439015 -0.26947334 0.16168545
000160 f6 94 be bd cc 7f 74 be 66 d8 52 3e 95 89 83 3e
       -0.09305756 -0.23876876 0.20590362 0.25690904
000170 eb 89 08 3e 61 24 b8 be 37 f3 f6 bc 13 4d 13 be
       0.13333862 -0.35965255 -0.03014527 -0.1438487
000180 04 84 22 3e 6a ab 43 be dd 7b 6c be 42 5f e1 be
       0.15870672 -0.19108358 -0.23094125 -0.44017988
000190 93 31 f4 3e 4e 6f 7a 3e ad 5b 77 be 98 31 14 be
       0.47694072 0.24456522 -0.24156065 -0.14472044
0001a0 d6 d2 74 be 7f 64 5d 3d 9c 33 85 be dd ee 8a be
       -0.23908553 0.05405092 -0.26015937 -0.27135363
0001b0 82 ea 09 3f 69 23 cd 3e c7 b5 c0 3d 9e e4 7d be
       0.53873456 0.40066078 0.09409671 -0.24794242
0001c0 ce 06 41 3d 41 f0 ba 3b a6 95 98 3e 81 ff 88 be
       0.04712563 0.00570491 0.29801673 -0.26757434
0001d0 0f 67 9a bf 78 58 15 bf c2 6a 3b be d8 e2 20 be
       -1.2062701 -0.5833812 -0.18302444 -0.15711534
0001e0 17 19 fa 3d 4a c7 2a 3e 1a 66 ec 3c fa a7 ee 3e
       0.12211817 0.16677585 0.02885728 0.4661253
0001f0 88 ae 6c bc f4 ee 8b 3e 6b ca df 3e d7 de fd 3e
       -0.014445908 0.27330744 0.4370912 0.49584076
000200 ab ec 8f bd b0 bc e1 3d b7 17 91 be 19 9b db 3e
       -0.07027563 0.110223174 -0.28338405 0.42891768
000210 95 bb 4f 3f 3e 78 1a bd f1 cc 9f 3d 01 5e 34 be
       0.811456 -0.037712328 0.07802761 -0.17613985
000220 44 08 9a bd e0 e6 02 bf ca 80 cb 3d c5 40 ea 3e
       -0.07521108 -0.5113354 0.09936674 0.4575254
000230 7f af a7 bd ca c5 99 be 1d 88 23 bc 36 62 62 3e
       -0.0818777 -0.30033714 -0.009981182 0.22107777
000240 07 8a 71 3d 2f 65 dd bd a7 f3 bf be b4 cc 2a bf
       0.058969524 -0.10810315 -0.3749058 -0.667186
000250 4a 46 30 3f 58 50 02 3f 9e 59 cc bc cf ca c1 be
       0.6885725 0.50903845 -0.024945077 -0.37850043
000260 8f 93 b8 be 45 f5 19 3e e4 41 a1 be 9d 08 96 be
       -0.36050078 0.15034969 -0.31495583 -0.29303446
000270 14 2c 8c 3f 4d 97 cd 3e 1b fe 05 3f ed 2f 56 3e
       1.0950952 0.40154496 0.5234086 0.2091672
000280 50 ea 6a be 13 31 20 3d 3e f0 ad be fa 0d a1 bc
       -0.22940946 0.0391093 -0.33972353 -0.019659985
000290 22 ec 81 3f 63 5f 0e 3e 58 83 16 3e 8c a9 90 3e
       1.0150187 0.13903575 0.14698541 0.28254354
0002a0 67 8e 82 be a4 85 15 3e 9c ca 19 be b8 cf 28 3f
       -0.2549927 0.14601761 -0.15018696 0.65941954
0002b0 d7 ad a9 3e 86 c7 dc bc c5 52 c7 be fc 0c f4 be
       0.33140442 -0.026950609 -0.38930336 -0.47666156
0002c0 6c 4c 6b be 38 d7 ee bd 9e 78 85 be d4 ff b0 3d
       -0.22978371 -0.116621435 -0.26068586 0.08642545
0002d0 54 e6 68 3e 5c 01 c4 3e c7 d1 b3 be 40 e9 db 3d
       0.22744113 0.38282287 -0.35120985 0.10737848
0002e0 b6 ee 68 3c e0 87 0e be c1 fa 5d 3e 2c c3 37 be
       0.014217069 -0.1391902 0.21677686 -0.17945546
0002f0 98 bb 35 be 99 51 59 3e 9f 7c 49 3c 88 d5 8a be
       -0.17747343 0.21222533 0.012297778 -0.27116036
000300 e2 f7 8e bd 84 8c 4f be 19 18 dd 3e dc f3 4d bd
       -0.06980874 -0.20268446 0.43182448 -0.05028139
000310 ba a3 a7 be 16 ea a9 bc 31 30 62 3e 14 34 a5 3d
       -0.327421 -0.020741504 0.22088696 0.08066574
000320 71 03 1f bd b9 c6 9c be 14 a3 12 3f 0c c1 b4 3e
       -0.03882164 -0.30620363 0.5728009 0.35303533
000330 96 ee 43 be e5 69 32 3e 82 68 af 3e ff e3 8b 3e
       -0.19133982 0.17423208 0.3425942 0.27322385
000340 48 b9 3b 3d 01 d2 8a bd 9d 2f be 3e e1 61 f2 be
       0.045830995 -0.06778336 0.371457 -0.473403
000350 18 43 3d bf aa cf f0 be a7 14 c3 be 03 e9 d9 3e
       -0.739305 -0.47033435 -0.38101694 0.42560586
000360 96 8a 15 3d f4 7c 36 bd 70 b5 a0 3e 60 ee a2 3e
       0.03650912 -0.04455276 0.31388426 0.3182249
000370 9f 7b 3e bf 8d 5a 5f be 73 37 33 bd bb 97 e8 3e
       -0.7440738 -0.21811886 -0.043754052 0.4542826
000380 6c f5 ca 3c fb 09 ff be 9d a7 ef 3d b2 e6 6d 3d
       0.02477523 -0.49812302 0.117018916 0.058081336
000390 8e 00 96 3e ab 83 ad be f9 71 24 3f 4a f4 1a 3c
       0.29297298 -0.33889517 0.6423641 0.009457657
0003a0 1f c8 da be 05 7c 95 be 18 ad ca be cc 87 05 bf
       -0.42730805 -0.29196182 -0.39585185 -0.52160335
0003b0 b5 1a ac 3e 0b 1a c2 3e 4a fa 34 bd a6 4a b0 3d
       0.33614126 0.37910494 -0.044184007 0.08607988
0003c0 c6 b5 83 3e 97 84 82 be 42 fd 1a 3e a0 2d e8 be
       0.2572462 -0.25491783 0.15135673 -0.4534731
0003d0 56 95 0d 3f cf 2e da 3e ee d9 81 be 60 d4 d4 3d
       0.55305994 0.42613837 -0.2536158 0.1039207
0003e0 e0 8a 6a 3e f7 21 95 3e 28 91 b3 be 0e 97 49 3e
       0.22904539 0.29127476 -0.35071683 0.19686529
0003f0 8a 64 0b 3f ff 3f df 3d 09 a4 a4 be cb ba 62 be
       0.54450285 0.10900878 -0.321564 -0.22141568

actor_common.bias f4 [128]
000000 9d 69 73 be 09 90 06 bc 9e af 71 3e bb 75 56 bd
       -0.23770757 -0.008213052 0.23602149 -0.05235837
000010 43 51 46 3d f7 4a 16 3d 0b eb 96 3d 6b d8 02 3e
       0.04841734 0.036692586 0.0736905 0.1277787
000020 f8 1f 13 3e 19 0d ff bd 71 23 2d be be a6 35 be
       0.14367664 -0.1245367 -0.16908051 -0.17739388
000030 26 24 9f 3e 73 ab 04 3c 8b 4e 21 3e fb c9 0a 3e
       0.31082267 0.008097517 0.15752618 0.13553612
000040 c0 c0 27 3e 9e cc c8 bc b1 f6 9f 3e 5a fa 4f 3d
       0.16382122 -0.024511632 0.31242898 0.050775863
000050 3a d4 00 3e c3 39 27 3e c5 b8 9f be 31 c4 b5 be
       0.12580958 0.16330628 -0.31195655 -0.35501245
000060 44 97 87 3d 3d f9 3f 3e 4f 90 28 3e 77 ce 5a 3e
       0.066206485 0.1874742 0.164613 0.21367823
000070 e8 34 04 be aa 42 7f 3e 1c f5 4d 3d b7 76 88 be
       -0.12910807 0.24927774 0.050282583 -0.26653072
000080 d1 56 2e be dc e5 62 3e 4a 8e ee 3d e6 8f c9 be
       -0.17025305 0.22157997 0.11648233 -0.39367598
000090 f9 d4 97 3e 86 17 0c 3e 12 a4 b4 3e b7 32 5e 3e
       0.29654673 0.13680848 0.35281426 0.21699034
0000a0 55 6b b5 3d 85 e1 ca 3d de ae bf bb 96 7b 4a be
       0.088583626 0.09906296 -0.005849703 -0.19773707
0000b0 26 20 72 3e 60 48 59 bc 17 ce c8 3d 10 0b e7 ba
       0.23645076 -0.013261884 0.098049335 -0.0017627198
0000c0 2c fc 7c 3e 80 f4 55 be ae a1 87 be dd df 6d be
       0.24705571 -0.2089405 -0.2649054 -0.23229928
0000d0 6c 62 16 be cf 86 10 3e 8f 90 6b 3e 76 d1 d1 3c
       -0.14685982 0.14113925 0.23004363 0.025612574
0000e0 b9 7b 04 3e a4 e3 98 3d d6 89 a5 3e 8c ae 21 bd
       0.12937821 0.07465294 0.32331723 -0.0394731
0000f0 e1 67 08 3e 1c 4f a4 be 85 71 1c be 18 50 fb 3d
       0.13320877 -0.32091606 -0.1527768 0.12271136
000100 88 d7 e7 be df f9 e3 3d da 92 57 be eb d8 4a 3e
       -0.45281625 0.111316435 -0.21052113 0.1980931
000110 e5 de 7b 3e 13 46 44 be 5f 79 a8 3d 86 1b 27 3e
       0.24596746 -0.19167356 0.08226275 0.16319093
000120 81 b6 5f 3c 51 de 53 3d 90 3b 10 3e a9 c1 cb 3c
       0.013654352 0.05172569 0.14085221 0.024872618
000130 4c 4d c0 3d 3a 3c 4b 3e c7 63 e0 3b a0 8f a6 3d
       0.09389743 0.19847193 0.006847832 0.08132863
000140 c1 d7 8f be 54 e0 d7 3c 83 e6 b3 be 05 5a 35 3e
       -0.28094295 0.026352085 -0.35136804 0.17710121
000150 c1 6d 17 be 97 94 02 be 62 24 90 bd a8 82 b6 be
       -0.14787962 -0.12751995 -0.070381895 -0.35646558
000160 91 7f 9f 3e 8b 8c f1 bd 6d 29 d9 bd cb 79 9d 3e
       0.31152013 -0.117943846 -0.106036045 0.30756983
000170 a2 51 b3 be 46 c1 d3 3d 8a f7 3d bb c0 71 69 be
       -0.35023218 0.10339598 -0.0028986656 -0.22797298
000180 0e 95 49 3e 99 67 86 3e d0 91 88 3e db 08 36 bd
       0.19685766 0.26250914 0.26673746 -0.04444204
000190 b2 5b b1 bd 51 ca 31 3b c8 b4 14 be 00 fe 1e 3e
       -0.086600676 0.0027128647 -0.14522088 0.15526581
0001a0 b6 23 65 be 15 a6 c2 3d 6f 53 c3 3d 98 a1 1c be
       -0.22376904 0.09504334 0.09537398 -0.15296018
0001b0 33 9b 56 3e 05 f9 1e be 66 5c b3 bd a5 8f 58 3c
       0.20957641 -0.15524681 -0.08757858 0.013217841
0001c0 25 61 88 3e 58 72 00 3e 77 66 5a 3e 94 5f 40 3d
       0.26636615 0.12543619 0.2132815 0.04696615
0001d0 86 83 d4 be 46 1c 90 3d 12 8e c1 bd ae d3 c9 3d
       -0.41506594 0.07036643 -0.09450926 0.09854828
0001e0 12 8c dc be 2a cd 20 3e d4 7a 0d 3e 40 e4 5d 3e
       -0.43075615 0.15703264 0.13816386 0.21669102
0001f0 ec 70 9b be 6e 50 12 3e 3e 16 31 be 30 8b 29 3e
       -0.3035959 0.14288494 -0.17293641 0.16557002

actor_action.weight f4 [4, 128]
000000 0a 4a d4 3d d9 a9 45 be cd 95 10 be e4 db 0f 3e
       0.10365684 -0.19303073 -0.14119644 0.14048725
000010 9a 79 5d be e7 93 e4 3d e7 0a f5 3d d0 01 94 bc
       -0.21628419 0.11161023 0.1196497 -0.01806727
000020 d0 6f a8 3e 90 d7 ee 3d d6 ab e2 bc a5 45 36 3e
       0.32897806 0.11662209 -0.027669828 0.17800005
000030 b5 e7 05 be f2 15 cc bd 08 1c f8 bd 15 c2 94 3e
       -0.1307667 -0.09965123 -0.121147215 0.29054323
000040 e5 4a 25 3e 8e 5d 58 3e da c6 4e be ca 1b f3 3d
       0.16141851 0.21129438 -0.20193043 0.11870535
000050 78 57 fc 3d ba 02 6a bc 59 cc d9 3d 6c d4 f8 bb
       0.12321371 -0.014282877 0.10634679 -0.007593682
000060 12 ec 28 3d ad bf 81 3e 9d a5 16 be 04 d1 19 3e
       0.04124076 0.2534155 -0.14711614 0.1502114
000070 25 71 8e 3e 73 8f ad bd 55 61 55 be 32 51 dd 3b
       0.27820697 -0.084746264 -0.2083791 0.006754064
000080 3a 0d 64 3d db 7d 90 be 73 ad 7d be a4 2e fb 3d
       0.055676676 -0.2822102 -0.24773197 0.12264755
000090 dc 2d a2 bd 02 fa 87 bc 3a 17 28 3e 0f 66 b9 bd
       -0.07918903 -0.016598705 0.1641511 -0.09052669
0000a0 97 aa c3 3e 7a 7a 89 3e a8 e2 dd 3d d8 d3 9f 3d
       0.38216087 0.26851255 0.10834247 0.07804078
0000b0 00 6c 0b be 1c 29 0d 3e 18 33 a5 bd 64 4a 6b 3d
       -0.13615417 0.13785213 -0.08066386 0.05744399
0000c0 db b9 00 be ff ae 15 3e 62 04 c4 bc e9 2b f9 3d
       -0.12570898 0.14617537 -0.023927871 0.12166578
0000d0 dd a5 04 3c f4 e0 d8 bd b0 6c a3 3e c2 94 78 3e
       0.0080961855 -0.105897814 0.3191886 0.24275497
0000e0 05 42 01 be c1 cb fb 3d 8e 61 3a 3d 55 df 5d bc
       -0.1262284 0.12294722 0.04550319 -0.013542016
0000f0 9a c8 1d bd 35 c1 62 3d 0d f0 de bc 95 12 ec 3d
       -0.038521387 0.055360038 -0.027214075 0.11526982
000100 ac af 6e bd d3 8c 79 3d 2f 01 23 bc 8b e9 61 be
       -0.058273003 0.060925316 -0.009949013 -0.22061746
000110 28 f6 f3 bd 2f 3f 00 3e 8b b0 bb bd ec c8 a9 3e
       -0.11912185 0.12524103 -0.09164532 0.33161104
000120 20 ec 39 3e 4f 8e b5 bd 96 c2 78 3e e1 91 2d 3e
       0.18156481 -0.08865034 0.24292979 0.1695018
000130 f5 a6 45 3d fc 7e 97 3e e3 d7 2d be 94 49 b0 bd
       0.048254926 0.2958907 -0.16976885 -0.08607784
000140 69 db 18 bd 57 de 1a bd dd b8 22 3c c0 f5 9b 3e
       -0.03731862 -0.037809696 0.00993177 0.3046093
000150 dd 63 38 3d b9 9a 83 bd 4e ff c2 3e 8e f5 e3 3c
       0.045017112 -0.064259954 0.38085407 0.02782705
000160 7e ba 82 3e 99 e0 4c 3d bc 5e c0 3e 24 39 65 be
       0.25532907 0.05001888 0.37572277 -0.22385079
000170 59 32 e8 3d db 04 ce 3d 43 15 86 bd 75 f9 32 bd
       0.11337728 0.1005952 -0.06547024 -0.043694932
000180 3b 05 a3 3e 0a a9 22 bd ca 7b 36 3e 9c cd 86 3e
       0.31839928 -0.03971199 0.1782066 0.26328743
000190 9d 7c 58 bc b3 5b 23 bd 94 65 48 be 10 23 db bd
       -0.013213304 -0.039882373 -0.19569999 -0.10700047
0001a0 7a f0 d8 bc b1 06 90 3e 85 74 d7 bd 48 99 19 bd
       -0.026481856 0.28130105 -0.10520271 -0.037499696
0001b0 cb ba 96 3e 6b 10 60 3e 88 fa 0d 3e 87 d2 39 bc
       0.29439387 0.21881263 0.13865101 -0.011341698
0001c0 4e ee 91 3e 29 cc 97 3e 0c ba 47 3e c5 d3 84 3e
       0.28502125 0.2964795 0.19504565 0.25942817
0001d0 2d b9 f4 bb cb 3c 04 3d 8e be 1e 3e 2e 00 80 3d
       -0.0074683637 0.03228454 0.15502378 0.06250034
0001e0 08 86 6e 3c 37 cf b0 3e 96 e7 87 be 1f 9d df 3e
       0.014558323 0.34533092 -0.26543874 0.4367456
0001f0 7f 4a 8b bb 4b 59 d1 3e 14 ee 8a bd 4d 66 8b 3e
       -0.004250824 0.40888438 -0.06783691 0.27226487
000200 80 af c7 3c 29 0c df be d6 7d f2 bd 8a 1b b8 bd
       0.024375677 -0.43563965 -0.118404076 -0.08989628
000210 09 a0 d8 be 10 3f 4d be 1a ce aa bd 18 e9 2e 3e
       -0.42309597 -0.20043588 -0.08340092 0.17081106
000220 68 c6 3d be a0 e9 b7 3e 63 50 49 bd 04 04 cc bc
       -0.18532717 0.3592043 -0.04914893 -0.024904259
000230 74 c7 8b be e8 bc 8b be 85 ae aa 3e 88 4f 0b bd
       -0.27300608 -0.27292562 0.33336273 -0.034011394
000240 99 32 41 be 26 59 84 bd ec d1 aa be 9f 23 ed be
       -0.18866958 -0.06462316 -0.33363283 -0.4631624
000250 35 19 f3 be 19 8e 40 bd 96 3c fa 3d 45 67 09 bc
       -0.4748017 -0.047010515 0.12218587 -0.008386438
000260 07 58 9b bc d0 f9 cf 3c e7 3b 4e 3e b5 dd 3f 3e
       -0.018962873 0.025387675 0.20140038 0.18736918
000270 1d e2 9a bd ec f4 8e be 9c ef c2 bd e3 a6 dc bd
       -0.07562659 -0.27921236 -0.09518358 -0.107740186
000280 26 e8 52 3d 4f 7f 04 bf e2 1b 7e bd 51 32 be 3d
       0.051490925 -0.5175676 -0.06203831 0.09286941
000290 1e 97 69 3e 48 74 94 be f6 cd 26 3e 3b 43 a9 be
       0.22811553 -0.28994966 0.16289505 -0.33059105
0002a0 8f cb 49 bd 9f c1 0d 3d ee d4 b9 be c7 57 59 3e
       -0.049266394 0.03460848 -0.36295265 0.2122489
0002b0 6a 6a 72 be 4a 5b c7 3e 4f ed dd bd 08 93 d0 be
       -0.23673406 0.38936836 -0.10836279 -0.40737176
0002c0 53 3b 0b 3e c2 5e 81 bd 25 49 0f bc 69 b2 c9 bd
       0.13596849 -0.06316902 -0.008745466 -0.09848482
0002d0 db df 32 3c 79 e4 48 3d 99 e2 58 be a7 72 f8 bd
       0.010917629 0.049046014 -0.2118019 -0.12131243
0002e0 6f 81 ad 3d b3 a9 96 3e 9f 04 53 3e d0 68 cc 3e
       0.08471953 0.29426345 0.20607232 0.39923716
0002f0 8c a9 9a 3e ce 04 ba 3c 5e b4 d3 3d 10 45 4e be
       0.3020748 0.02270737 0.10337137 -0.20143533
000300 b8 b8 a8 bd 6b c3 c7 3d 0e 6d 1f be 27 e7 20 be
       -0.08238357 0.0975407 -0.15568945 -0.15713178
000310 7e 99 b7 be 1b d6 86 3c da 66 83 bd a5 00 bf 3c
       -0.35859293 0.016459515 -0.06416102 0.023315737
000320 69 c1 95 bd 53 3f ef be 46 95 53 bd 5c 77 b7 bc
       -0.07312281 -0.46728 -0.05165603 -0.022395782
000330 a6 f7 5d bd 1b b2 4f bc dc fd f3 be 38 06 7f 3e
       -0.054191254 -0.012676741 -0.47654617 0.24904716
000340 fb 3a 11 3e 6d d8 1b 3e 4b b2 6f 3d 1c 4d a5 bd
       0.14182656 0.15219279 0.058519643 -0.08071348
000350 14 e5 1b 3c 96 b0 08 be 40 00 81 be f8 a2 20 3d
       0.009515066 -0.13348612 -0.25195503 0.03921792
000360 c5 57 d4 be ac eb 6c 3c 0d 48 89 bd ef 1a bc bd
       -0.41473213 0.014460485 -0.06703196 -0.09184825
000370 c6 57 42 3d 9a 71 f3 bc 8c fa 81 ba b5 d8 88 3e
       0.04744699 -0.029717255 -0.0009916588 0.26727834
000380 2b 7f fb bc 78 a5 9f bd c4 1d bd be 2f 95 ec bd
       -0.030700287 -0.077952325 -0.36936772 -0.11551892
000390 98 67 ad 3d 91 0d d8 3e 75 10 5f 3e 3e 63 8e 3e
       0.084670246 0.4219785 0.21783622 0.2781009
0003a0 7b 93 85 3d 10 12 7d 3e 3b c1 a0 be ca 83 c1 3b
       0.0652227 0.24713922 -0.31397423 0.005905603
0003b0 84 fc 95 bd 31 d5 0d be 4a d1 ac bd ca b3 68 be
       -0.07323554 -0.13850857 -0.08438356 -0.22724834
0003c0 4f 8d b7 be 9c 5a d5 bd 02 b4 bc 3d 8f 24 82 3c
       -0.35849997 -0.10417673 0.09214021 0.015886573
0003d0 9b 81 0f bc 80 9c ec 3e 13 05 9f 3e 46 15 f7 3e
       -0.008758928 0.4621315 0.3105856 0.48258418
0003e0 02 69 95 3d 20 ce 52 3e de 40 86 be 84 af 13 3c
       0.07295419 0.20586443 -0.26221365 0.009014014
0003f0 0f 48 08 3e 9b 24 65 3c 7e 9b de 3d f6 a5 22 3e
       0.13308738 0.013985778 0.108695015 0.15883622

actor_action.bias f4 [4]
000000 e6 54 ec 3c df a2 53 bd 82 bc 9e 3d ff aa 59 bd
       0.028849076 -0.051668998 0.07750799 -0.05314159
