policy0.01.pth (torch, 8159 bytes, 4 tensors)

actor_common.weight f4 [128, 8]
0.056699466 -0.07946466 0.15145807 -0.26303518 0.40945968 -0.05729992 -0.07396804 0.39736077
0.08444627 -0.48340964 0.15680474 -0.13934226 0.33607358 -0.05356803 -0.34522578 0.26682046
-0.38916957 -0.16272713 0.09914719 0.14410998 -0.31440988 -0.40609312 -0.14979398 -0.30951014
-0.4628321 0.27464023 -0.86867636 -0.2296382 0.4040377 0.4810983 -0.16380826 -0.7961972
-0.115767755 0.27098793 -0.8421064 -0.00527014 1.1805327 0.74934006 -0.010313881 -0.387771
-0.26391032 0.09513732 -0.064196326 -1.0690737 0.5128954 -0.38389844 0.4650908 0.11590831
-0.23561811 -0.12215345 0.22881153 0.1812589 0.27054647 -0.14354455 -0.1624939 0.013751596
0.14312771 0.25386894 -0.6233736 0.4150996 0.37243482 0.26316905 -0.47882518 -0.22947705
-0.27626324 -0.03563747 0.12524825 -0.13169444 -0.13733675 0.16107963 -0.08869023 0.0025242188
-0.16671784 -0.7385881 0.24511993 0.0007031254 -0.1369873 -0.41607982 -0.048462525 -0.14155197
-0.17656049 -0.21411256 0.20988461 -0.5564496 -0.8496853 -0.7193333 0.43883345 0.18154557
-0.31260428 0.09602573 -0.56816065 -0.37815133 0.9323947 -0.32328415 0.21265236 0.25586277
0.060844194 -0.7281075 -0.07554574 0.10441988 0.30744484 0.2980672 -0.22974682 -0.16280957
-0.22719248 0.2845178 -0.6434245 -0.8160596 0.84376 0.5874105 -0.07281558 -0.19874515
0.1189166 -0.44578215 -0.19363484 0.28641436 -0.01543723 -0.16077161 0.2472389 0.09278598
-0.09991235 -0.16545488 -0.038979065 0.20822453 -0.6026517 -0.056714 0.2762585 0.41620785
-0.06781005 -0.37164062 0.41288385 -0.080099806 0.14377299 -0.054015506 -0.05436559 -0.011423047
-0.009921613 0.0003176404 -0.21755353 0.07671102 0.29445896 -0.049039993 -0.15862313 0.31982806
-0.39357144 -0.08055631 0.09897549 -0.013999218 0.3564016 0.07008464 -0.026674775 -0.4515798
-0.43028477 0.050863806 0.49808884 0.36628887 -0.3398054 -0.39097807 -0.38213816 -0.8352543
0.2243977 0.05367757 -0.38364732 -0.042061288 0.25366762 -0.011061201 -0.10993309 -0.19605415
0.36165082 -0.080387145 0.80860966 0.19584438 -0.67982984 -0.5551909 0.09787812 -1.2555041
-0.4960473 0.041018132 -0.4227683 -0.72549736 -0.25316846 0.788546 0.40727162 -0.2703553
-0.115982726 -0.53638077 0.18948764 -0.09512944 0.2694339 0.19717604 0.46341047 -0.019051889
0.01038505 0.017085131 0.5580686 -0.39755666 -0.9397035 -0.9048767 0.17577127 -0.8521032
0.0712324 -0.402017 0.02208811 -0.024357855 -0.18922497 -0.17879358 0.17518687 -0.15346579
-0.29064554 -0.26446986 0.07983951 0.37933478 0.10795342 -0.15842879 -0.10069966 -0.43373322
0.111108795 -0.40992865 -0.030804401 0.094265334 -0.30528906 -0.11054976 -0.09381859 -0.1910587
-0.35990605 -0.48546588 0.08370527 0.5220923 0.12642725 0.2989628 0.03673454 -0.26206562
-0.07072829 -0.6436309 -0.08826211 -0.49997738 0.5273867 0.34484765 0.030675942 0.4330453
0.23379901 -0.50028 -0.23171143 -0.22725593 0.13680087 0.11839172 -0.20705155 -0.31263372
-0.13724753 -0.22647688 -0.09659234 -0.7359859 -0.5620086 -0.79237425 0.557034 -0.29633525
00000000: b33d 683d 5ebe a2bd d317 1b3e 8cac 86be
00000010: b3a4 d13e 52b3 6abd 8e7c 97bd df72 cb3e
00000020: 2af2 ac3d 7881 f7be 6c91 203e bdaf 0ebe
00000030: d611 ac3e 276a 5bbd 6fc1 b0be b19c 883e
00000040: 3c41 c7be f1a1 26be af0d cb3d 9191 133e
00000050: 55fa a0be 70eb cfbe 9863 19be 1d78 9ebe
00000060: 54f8 ecbe a59d 8c3e 9361 5ebf 4726 6bbe
00000070: 08de ce3e 8452 f63e 5abd 27be 94d3 4bbf
00000080: a517 edbd eebe 8a3e 4994 57bf 23b1 acbb
00000090: b21b 973f c0d4 3f3f 8dfb 28bc ec89 c6be
000000a0: 411f 87be 5bd7 c23d 5d79 83bd 68d7 88bf
000000b0: 1d4d 033f 568e c4be 6220 ee3e 5661 ed3d
000000c0: e045 71be 972b fabd 924d 6a3e ef9b 393e
000000d0: 1185 8a3e 58fd 12be cd64 26be 604e 613c
000000e0: 1290 123e 1cfb 813e 6a95 1fbf ef87 d43e
000000f0: c7af be3e 18be 863e 9328 f5be 08fc 6abe
00000100: 6072 8dbe 99f8 11bd 1441 003e e8da 06be
00000110: 01a2 0cbe 0ff2 243e 39a3 b5bd 5d6d 253b
00000120: 15b8 2abe 1c14 3dbf b800 7b3e f251 383a
00000130: 6646 0cbe 6a08 d5be a480 46bd 00f3 10be
00000140: 46cc 34be 5340 5bbe feeb 563e 7b73 0ebf
00000150: fa84 59bf 3a26 38bf c7ae e03e 15e7 393e
00000160: ab0d a0be 23a9 c43d fa72 11bf 0d9d c1be
00000170: 6bb1 6e3f 8085 a5be 8ac1 593e 7200 833e
00000180: c337 793d 4165 3abf bab7 9abd 17da d53d
00000190: 6969 9d3e 449c 983e c042 6bbe 8db7 26be
000001a0: 25a5 68be 51ac 913e 78b7 24bf 48e9 50bf
000001b0: a800 583f 8960 163f 5620 95bd d983 4bbe
000001c0: 8c8a f33d 8f3d e4be 3648 46be e7a4 923e
000001d0: 6fec 7cbc 50a1 24be 322c 7d3e 9306 be3d
000001e0: d99e ccbd 016d 29be 83a8 1fbd d038 553e
000001f0: 6247 1abf f04c 68bd c171 8d3e 3219 d53e
00000200: ffdf 8abd ae47 bebe 8365 d33e 5e0b a4bd
00000210: 3a39 133e 5d3f 5dbd 74ae 5ebd bb27 3bbc
00000220: 438e 22bc f988 a639 5ac6 5ebe ab1a 9d3d
00000230: 53c3 963e 29de 48bd 1a6e 22be 81c0 a33e
00000240: 3282 c9be b5fa a4bd a9b3 ca3d fa5c 65bc
00000250: 457a b63e 8988 8f3d 0f85 dabc 7835 e7be
00000260: 494e dcbe 9156 503d 8005 ff3e 378a bb3e
00000270: f9fa adbe 472e c8be 9da7 c3be 3ad3 55bf
00000280: 83c8 653e 03dd 5b3d 6c6d c4be 7548 2cbd
00000290: b9e0 813e 0a3a 35bc 9a24 e1bd 6bc2 48be
000002a0: 4c2a b93e 04a2 a4bd 0b01 4f3f 6e8b 483e
000002b0: 5409 2ebf fe20 0ebf 5374 c83d 5cb4 a0bf
000002c0: e9f9 fdbe a102 283d 1675 d8be 32ba 39bf
000002d0: 4c9f 81be 27de 493f e885 d03e 036c 8abe
000002e0: 5a88 edbd 4050 09bf 0c09 423e 39d3 c2bd
000002f0: 3df3 893e 84e8 493e 2344 ed3e b512 9cbc
00000300: 0f26 2a3c 1ef6 8b3c 95dd 0e3f 8c8c cbbe
00000310: 6990 70bf 00a6 67bf 62fd 333e 6f23 5abf
00000320: 4be2 913d 2cd5 cdbe 20f2 b43c 208a c7bc
00000330: 31c4 41be aa15 37be 3064 333e 2326 1dbe
00000340: 7ecf 94be 9868 87be e682 a33d 2b38 c23e
00000350: af16 dd3d 283b 22be a03b cebd 4812 debe
00000360: 028d e33d 2be2 d1be 8359 fcbc 2f0e c13d
00000370: d94e 9cbe ea67 e2bd f623 c0bd e4a4 43be
00000380: 9b45 b8be fc8e f8be ab6d ab3d d7a7 053f
00000390: 2576 013e a711 993e f576 163d 772d 86be
000003a0: fed9 90bd ffc4 24bf c4c2 b4bd 09fd ffbe
000003b0: d102 073f df8f b03e 1d4c fb3c 1db8 dd3e
000003c0: 0269 6f3e 5a12 00bf c345 6dbe c7b5 68be
000003d0: 8715 0c3e 5c77 f23d 5205 54be 8711 a0be
000003e0: 9e8a 0cbe 8ee9 67be 34d2 c5bd 9269 3cbf
000003f0: ccdf 0fbf 0ad9 4abf c899 0e3f 41b9 97be

actor_common.bias f4 [128]
-0.43810815 -0.19779563 -0.33563915 0.09854859 0.09284874 0.023043325 -0.3666668 -0.27909842
-0.43933064 -0.05412375 0.22227502 -0.018999266 -0.20934804 0.0078126155 0.13425244 -0.10498777
-0.19465142 -0.45120576 -0.17624849 -0.06557944 -0.5346836 0.22570992 -0.0075381524 -0.12509248
0.15462439 -0.21329865 0.031712584 -0.22602679 -0.3505191 -0.3113759 -0.36976236 0.18245286
-0.28984663 -0.3723747 -0.28570157 -0.041362535 -0.22434638 0.11622691 -0.13792095 0.18067637
-0.25957566 -0.35884646 0.204852 -0.29465201 0.111125186 0.038413085 0.27754074 -0.055321336
-0.10897403 0.2557364 0.0003840204 -0.3676684 -0.009648862 -0.12387076 -0.30011207 -0.36124507
-0.22965325 -0.44922358 0.32109988 -0.2236385 -0.30118862 -0.41773796 0.07851829 -0.31450266
0.29896304 -0.10945579 -0.5473223 -0.088966355 -0.42913365 0.4399758 0.076668784 -0.5473976
-0.44908455 0.15801041 0.03744014 0.30153826 0.1269172 -0.41157654 -0.32859117 -0.43908235
0.24697164 -0.37077647 0.16295867 -0.55044174 -0.19840054 0.019140067 -0.590782 -0.33241868
0.04134179 -0.4962872 -0.41904265 0.054525238 0.019897725 -0.26650578 -0.15937372 0.28095418
-0.40556395 -0.39401284 0.2979946 -0.03337361 -0.20953137 0.02680717 -0.26800478 -0.16502742
0.07903765 -0.18401496 0.08927665 -0.008751403 0.05045744 -0.36019567 -0.28387073 -0.25671536
-0.049783755 -0.4727293 -0.4074279 -0.20540933 -0.34820527 -0.29688948 0.046057884 -0.3777268
-0.14144066 0.24512917 -0.07807836 -0.43323916 -0.25462586 0.37475538 -0.31158528 -0.28632906
00000000: b64f e0be f08a 4abe e5d8 abbe d8d3 c93d
00000010: 7b27 be3d 5bc5 bc3c c0bb bbbe fde5 8ebe
00000020: f2ef e0be deb0 5dbd 109c 633e 59a4 9bbc
00000030: 555f 56be 7c00 003c 7979 093e d403 d7bd
00000040: b452 47be 7104 e7be 7c7a 34be 834e 86bd
00000050: 06e1 08bf 8020 673e 9b02 f7bb 3e18 00be
00000060: db55 1e3e f66a 5abe 0ee5 013d 9173 67be
00000070: 3d77 b3be a96c 9fbe 7e51 bdbe ecd4 3a3e
00000080: c766 94be e6a7 bebe 7a47 92be c36b 29bd
00000090: 0fbb 65be 6008 ee3d 263b 0dbe 3a03 393e
000000a0: 1ae7 84be b9ba b7be b9c4 513e a1dc 96be
000000b0: 9a95 e33d 0a57 1d3d d219 8e3e a098 62bd
000000c0: c72d dfbd e2ef 823e 5856 c939 083f bcbe
000000d0: 4316 1ebc f4af fdbd 4aa8 99be 1df5 b8be
000000e0: 392a 6bbe a200 e6be 3467 a43e 7e01 65be
000000f0: 6535 9abe c0e1 d5be 32ce a03d 7e06 a1be
00000100: af11 993e 5b2a e0bd 501d 0cbf fe33 b6bd
00000110: 68b7 dbbe 8244 e13e 8604 9d3d 4022 0cbf
00000120: 69ee e5be 7bcd 213e d55a 193d 3963 9a3e
00000130: 95f6 013e 29ba d2be 1a3d a8be 67cf e0be
00000140: 22e6 7c3e 6ad6 bdbe a3de 263e c0e9 0cbf
00000150: 8329 4bbe a1cb 9c3c 7d3d 17bf c832 aabe
00000160: 0256 293d 5b19 febe c28c d6be db55 5f3d
00000170: 8e00 a33c 7273 88be dd32 23be 3ad9 8f3e
00000180: 14a6 cfbe 0dbc c9be c092 983e c4b2 08bd
00000190: 648f 56be b69a db3c ec37 89be f3fc 28be
000001a0: 7ede a13d 6b6e 3cbe add6 b63d 0b62 0fbc
000001b0: 76ac 4e3d 916b b8be 8157 91be 3270 83be
000001c0: 0dea 4bbd 9309 f2be 649a d0be d356 52be
000001d0: f647 b2be e601 98be 31a7 3c3d 6865 c1be
000001e0: d2d5 10be 2403 7b3e 8ce7 9fbd 86d1 ddbe
000001f0: 525e 82be f0df bf3e 1b88 9fbe b999 92be

actor_action.weight f4 [4, 128]
-0.061467905 0.042917687 0.2043255 -0.30386627 -0.29609603 -0.04583533 -0.17022601 0.023981681
0.08505818 0.2274166 0.21058701 0.092282906 0.17150238 -0.53945225 0.23768151 0.24634747
0.091285676 0.028726395 0.040975474 0.22310202 -0.29568365 0.027033845 -0.012024096 0.32808053
0.040880844 0.070370294 0.12779512 0.098285 0.292218 -0.077237956 -0.174195 0.1311707
0.1403306 -0.14651008 -0.102973506 0.4350508 0.37824267 0.08203323 0.20291272 0.37479988
0.18801008 -0.12747926 -0.2365182 0.08043627 0.20708719 -0.061112855 0.20525865 -0.39597043
0.11471632 0.43329096 -0.2890343 -0.1666144 0.52492315 -0.082900286 0.093281366 -0.014399702
0.24990807 -0.18317391 -0.1666158 0.047432046 -0.038241956 0.024889316 0.28212836 0.21086766
0.36083868 0.57185185 -0.08416055 0.26208654 -0.06689993 0.328279 -0.6536175 -0.028077098
-0.14991406 0.23057012 0.19567317 0.38619944 -0.21030393 0.10526923 0.2265363 0.13366835
-0.3804357 0.16018783 -0.29980338 0.083795 0.092858255 -0.05941226 0.028245047 0.17939608
-0.19533865 -0.03194074 -0.053359516 -0.22588447 0.45176217 0.026139334 -0.16758002 0.17743236
0.06462282 -0.053015623 -0.29193768 0.35484713 0.20017257 -0.5459448 -0.23164032 0.047237016
0.14900692 0.0493358 0.42883128 0.45445004 0.1317999 0.13914406 0.0145459585 -0.073562756
0.23639993 -0.07270921 0.11154325 0.1716297 -0.15085074 0.18391503 0.49427122 0.27292657
-0.033282686 0.01382651 0.5465712 0.18483193 0.0049622194 0.50897074 0.01962226 0.003319683
0.037758403 -0.06716989 0.1109046 -0.24551469 -0.4621396 -0.30589172 0.071605876 -0.12368236
0.07473465 -0.076108515 0.1628125 -0.6195581 -0.027220678 -0.48304608 0.1519459 0.054885086
0.0684484 0.018068485 0.104804024 0.27839294 0.09515027 0.7066715 -0.20405537 0.15064165
0.44548088 0.007897122 -0.0050902446 0.18097073 -0.05822149 0.21488868 0.0751514 0.061273627
0.004154266 -0.006557871 0.0120669035 -0.53989047 -0.23118731 0.33495754 -0.026409252 -0.11095963
0.07479314 -0.62387925 -0.3059586 -0.040016502 -0.20043126 -0.37539726 0.5539343 -0.28453743
-0.10382108 -0.18945798 -0.37546638 0.20450819 0.01906227 -0.01725052 -0.002943697 -0.2065894
0.12332466 -0.30797666 0.6430494 0.14559102 0.013827819 0.1066227 -0.34668276 -0.06449005
0.34979773 -0.5670417 0.21386266 -0.120622605 -0.036132142 0.09853898 -0.55973923 0.047442146
0.1057495 -0.28803143 -0.16582319 0.3471672 -0.4387694 0.091143064 0.4472455 0.18198036
0.34671846 -0.15170877 -0.54325426 0.106106825 -0.01953318 0.6051247 0.15801452 -0.06231363
-0.48157105 -0.0011153929 0.0978854 -0.26457852 -0.18416113 0.11087756 -0.0011025041 0.53740245
0.09937432 -0.0006299798 0.42828792 -0.040616956 -0.120712094 -0.22860801 0.0605783 -0.23202297
0.35750675 0.108463354 -0.48765174 -0.5984232 -0.30572218 0.06428569 -0.06486215 0.026954122
-0.07462911 0.054392044 0.14236267 -0.051995404 -0.04426499 0.040543232 -0.056723062 -0.028311219
0.05176876 0.3832133 -0.1289018 0.15742296 0.059532955 0.48750904 0.03217254 0.116551556
00000000: c5c5 7bbd 75ca 2f3d b43a 513e 5c94 9bbe
00000010: e699 97be d4bd 3bbd ba4f 2ebe 3b75 c43c
00000020: fc32 ae3d e6df 683e 1fa4 573e d2fe bc3d
00000030: 529e 2f3e 8b19 0abf c862 733e 8342 7c3e
00000040: fcf3 ba3d 9e53 eb3c e6d5 273d db74 643e
00000050: d963 97be 1576 dd3c b700 45bc 2cfa a73e
00000060: ac72 273d 4d1e 903d b9dc 023e a549 c93d
00000070: 999d 953e ef2e 9ebd 2d60 32be 9d51 063e
00000080: d3b2 0f3e bd06 16be c6e3 d2bd fabe de3e
00000090: 06a9 c13e 0a01 a83d 5ac8 4f3e c5e5 bf3e
000000a0: b785 403e ec89 02be d431 72be c5bb a43d
000000b0: aa0e 543e 7951 7abd 532f 523e a3bc cabe
000000c0: 64f0 ea3d 50d8 dd3e 4efc 93be f79c 2abe
000000d0: 5d61 063f a0c7 a9bd 4d0a bf3d baec 6bbc
000000e0: e7e7 7f3e f191 3bbe 559d 2abe 1b48 423d
000000f0: 99a3 1cbd aee4 cb3c 2173 903e b1ed 573e
00000100: d9bf b83e e264 123f 5e5c acbd 3530 863e
00000110: d502 89bd 2f14 a83e 7a53 27bf f101 e6bc
00000120: 1283 19be 931a 6c3e 8c5e 483e efbb c53e
00000130: ea59 57be 6597 d73d 22f9 673e 5be0 083e
00000140: 78c8 c2be 4708 243e d47f 99be b79c ab3d
00000150: 782c be3d 455a 73bd 2862 e73c 9bb3 373e
00000160: db06 48be 4bd4 02bd 828f 5abd 424e 67be
00000170: 5f4d e73e 2822 d63c 199a 2bbe d4b0 353e
00000180: f858 843d e926 59bd db78 95be 86ae b53e
00000190: 0afa 4c3e 0ac3 0bbf 1f33 6dbe 9a7b 413d
000001a0: 4595 183e 5614 4a3d c68f db3e adad e83e
000001b0: 8ef6 063e c87b 0e3e 2c52 6e3c 12a8 96bd
000001c0: d312 723e 91e8 94bd ca70 e43d b2bf 2f3e
000001d0: 9e78 1abe 3954 3c3e 1e11 fd3e 08bd 8b3e
000001e0: 6d53 08bd 9688 623c 17ec 0b3f 9544 3d3e
000001f0: 1d9a a23b e84b 023f ddbe a03c 0a8f 593b
00000200: 8ea8 1a3d 5e90 89bd f321 e33d 3468 7bbe
00000210: 909d ecbe d79d 9cbe 1aa6 923d 2d4d fdbd
00000220: 7b0e 993d c8de 9bbd 52b8 263e 5c9b 1ebf
00000230: e6fd debc d151 f7be b597 1b3e 2fcf 603d
00000240: ad2e 8c3d 5c04 943c 7ea3 d63d 8589 8e3e
00000250: 25de c23d 6ce8 343f e4f3 50be ce41 1a3e
00000260: 1216 e43e ee62 013c 11cc a6bb 6450 393e
00000270: a879 6ebd c70b 5c3e fae8 993d 0efa 7a3d
00000280: 8220 883b 69e3 d6bb 43b4 453c 4336 0abf
00000290: 5ebc 6cbe 8e7f ab3e 3758 d8bc cd3e e3bd
000002a0: 252d 993d 8db6 1fbf 9ba6 9cbe 58e8 23bd
000002b0: da3d 4dbe 1234 c0be a3ce 0d3f e4ae 91be
000002c0: 25a0 d4bd 4601 42be 213d c0be 986a 513e
000002d0: 7a28 9c3c f650 8dbc 0aeb 40bb 2c8c 53be
000002e0: a491 fc3d 1eaf 9dbe e39e 243f d015 153e
000002f0: 148e 623c 015d da3d 6780 b1be 5c13 84bd
00000300: b018 b33e a529 11bf d0fe 5a3e fc08 f7bd
00000310: 4cff 13bd cece c93d 124b 0fbf b252 423d
00000320: 3293 d83d db78 93be 8ecd 29be e6bf b13e
00000330: 62a6 e0be 37a9 ba3d 5dfd e43e 0f59 3a3e
00000340: 1585 b13e 8b59 1bbe b612 0bbf 894e d93d
00000350: 0c04 a0bc 74e9 1a3f 8fce 213e 943c 7fbd
00000360: 7b90 f6be 6032 92ba 2478 c83d d676 87be
00000370: bc94 3cbe c613 e33d e681 90ba 3593 093f
00000380: c384 cb3d 3b25 25ba 8e48 db3e f75d 26bd
00000390: e737 f7bd 3818 6abe f420 783d 6e97 6dbe
000003a0: 200b b73e 0922 de3d 7dad f9be 4332 19bf
000003b0: 9e87 9cbe 37a8 833d 72d6 84bd e4ce dc3c
000003c0: 26d7 98bd 31ca 5e3d 85c7 113e 22f9 54bd
000003d0: 354f 35bd a910 263d 7156 68bd eeec e7bc
000003e0: 7b0b 543d 8934 c43e d5fe 03be 7c33 213e
000003f0: d4d8 733d c99a f93e 5ac7 033d 95b2 ee3d

actor_action.bias f4 [4]
-0.15953122 0.045929614 0.29978698 -0.035549253
00000000: 275c 23be b120 3c3d ae7d 993e 189c 11bd
