policy0.01.pth (torch, 9111 bytes, 5 tensors)

actor_common.weight f4 [128, 8]
0	0x3f1465e2	0.5796796
1	0x3db73945	0.0894647
2	0x3f0eff22	0.5585805
3	0x3e6751fd	0.2258987
4	0xbf4d1223	-0.801058
5	0xbecd7f89	-0.40136364
6	0x3ec3920e	0.38197368
7	0xbe40f7f1	-0.18844582
8	0xbdcacf58	-0.09902829
9	0xbe908931	-0.2822967
10	0xbeec1ed0	-0.46117258
11	0xbf8bb767	-1.0915345
12	0x3edbd4b9	0.42935732
13	0xbcd8fd20	-0.026487887
14	0xbe8fda8a	-0.2809642
15	0xbdc3cb1e	-0.09560226
16	0x3e1f942d	0.15583868
17	0xbcb7a5c0	-0.022417903
18	0xbdc296f8	-0.09501451
19	0xbf1a9be8	-0.60394144
20	0x3e9bdcb3	0.30441818
21	0x3f11dbda	0.5697609
22	0x3e639b0d	0.22227116
23	0xbdf8a769	-0.12141306
24	0xbdc16f42	-0.09445049
25	0xbe4db052	-0.20086792
26	0x3f50bb2d	0.8153561
27	0xbf629ac1	-0.88517386
28	0xbf6a736b	-0.91582364
29	0xbebac7f4	-0.36480677
30	0x3ef4c482	0.47806174
31	0x3de08ba6	0.10964136
32	0xbe8a0f15	-0.26964632
33	0xbc84348b	-0.016138336
34	0x3f1a5585	0.6028674
35	0xbf5ce176	-0.86281526
36	0xbf0a7485	-0.54084045
37	0xbf01d2ee	-0.5071248
38	0xbcb5b0c0	-0.022179008
39	0x3e11e9f6	0.14249405
40	0xbedac2c5	-0.42726722
41	0x3e40465d	0.18776841
42	0xbe2f0795	-0.17092736
43	0x3f38e949	0.72230965
44	0x3eb65415	0.35611024
45	0x3db2c489	0.08728892
46	0x3dfd40ef	0.12365901
47	0x3ebb3673	0.3656498
48	0x3d8a85fe	0.06763838
49	0xbedcfeb7	-0.43163082
50	0x3e57e22a	0.21082368
51	0x3f305b82	0.6888963
52	0xbe34aadc	-0.17643303
53	0xbc605af1	-0.013693557
54	0x3ebbb6ad	0.36662808
55	0x3eb3db60	0.35128307
56	0x3f3679a0	0.71279335
57	0x3e46d908	0.19418728
58	0x3f192334	0.5981934
59	0x3f3f8d6a	0.74825156
60	0xbf434459	-0.76276165
61	0xbf0d7215	-0.552522
62	0x3e3305ac	0.17482632
63	0xbf2f1ce4	-0.6840346
64	0xbea9cb73	-0.33163032
65	0x3eddc99f	0.43317887
66	0xbece20d6	-0.40259427
67	0x3f80a211	1.0049459
68	0x3e371c4c	0.17881888
69	0x3e849ace	0.25899357
70	0x3d98abf0	0.074546695
71	0x3e460ea8	0.19341528
72	0xbdcfe61f	-0.10151314
73	0xbf0ff9b1	-0.56240374
74	0xbe64223f	-0.22278689
75	0x3f7acbde	0.97967327
76	0x3de2b6da	0.110700324
77	0x3e2ac968	0.16678393
78	0x3d27ad6b	0.04093687
79	0x3e86a12c	0.2629484
80	0xbe91e01f	-0.28491303
81	0xbddf809c	-0.10913202
82	0x3edf1bc6	0.43575877
83	0xbf37b68e	-0.7176293
84	0xbf0f2b60	-0.5592556
85	0xbaf32954	-0.0018551745
86	0x3eec3879	0.46136835
87	0x3e7d4149	0.24731936
88	0x3bcf0a74	0.006318385
89	0x3e8c8848	0.27447724
90	0xbf4d4c35	-0.8019441
91	0xbf03b5df	-0.5144939
92	0x3f306c33	0.689151
93	0x3e4130ea	0.18866315
94	0xbe555fc9	-0.2083732
95	0x3ebb6daf	0.3660712
96	0x3f23eb9f	0.64031404
97	0xbddf162a	-0.10892899
98	0x3d81bd92	0.06334986
99	0xbdf76a2e	-0.12080799
100	0x3ef72d5d	0.48276797
101	0xbef7beee	-0.48387855
102	0x3f102783	0.5631029
103	0xbe2e79d1	-0.17038657
104	0x3e3b2c15	0.18278535
105	0xbeb16944	-0.34650624
106	0xbe600c27	-0.21879636
107	0x3d6cd4bb	0.057820063
108	0xbdfd40b2	-0.12365855
109	0x3e1b8ec4	0.1519118
110	0xbe0e1e3f	-0.13878725
111	0x3ceddac7	0.029034985
112	0x3ee7c16a	0.4526475
113	0xbe99c433	-0.300325
114	0xbb231c2b	-0.0024888616
115	0x3e6075ad	0.2191989
116	0xbdddaa22	-0.10823466
117	0x3e322df7	0.17400347
118	0x3e5e65b7	0.21718489
119	0x3eda7d47	0.42673704
120	0x3ea2a7f2	0.31768757
121	0x3ecc570a	0.39910156
122	0x3efc06e3	0.49224004
123	0x3f6b8ffc	0.9201658
124	0xbf0ea88d	-0.5572594
125	0xbdb1ba62	-0.08678128
126	0xbdd58ef6	-0.10427658
127	0xbe9c47fd	-0.30523673
128	0xbe0ec03d	-0.1394052
129	0x3dc7ee6c	0.09762272
130	0x3e9a694b	0.30158457
131	0xbf19c6cc	-0.60068965
132	0x3f30195c	0.68788695
133	0x3efc1f5a	0.4924267
134	0x3e7f054a	0.24904361
135	0x3dbaf90c	0.09129533
136	0xbddd0884	-0.1079264
137	0x3e88cf5f	0.26720712
138	0xbed3e841	-0.41388133
139	0xbea5cbee	-0.32382149
140	0x3f07734e	0.52910316
141	0x3e90f8f9	0.2831495
142	0x3e4af644	0.19820505
143	0x3d7475bc	0.059682593
144	0xbe0c1513	-0.13679914
145	0x3e95ab9d	0.29232493
146	0x3ea38218	0.3193519
147	0x3f04279d	0.51622945
148	0xbf016580	-0.505455
149	0x3dc9ccae	0.09853493
150	0xbdce4c8f	-0.10073196
151	0x3f369afd	0.71330243
152	0x3ead6351	0.33864835
153	0xbcf08bde	-0.029363569
154	0x3ea36bbf	0.3191814
155	0xbe495eed	-0.19665118
156	0xbf7d759d	-0.9900759
157	0xbe6c9637	-0.23104177
158	0x3eef5b78	0.46749473
159	0x3e217cea	0.15770307
160	0xbeb9d68d	-0.36296502
161	0x3d09a1b2	0.03360147
162	0x3ec53957	0.3852031
163	0xbf16e0e8	-0.5893693
164	0x3d422e5e	0.0474075
165	0x3f232e81	0.63742834
166	0x3caaa5de	0.020831045
167	0x3e5af8bd	0.21383949
168	0x3e113dda	0.14183751
169	0x39a65844	0.0003172775
170	0x3efd2635	0.49443212
171	0xbf2107e1	-0.6290265
172	0xbf1a6171	-0.60304934
173	0xbf0135d7	-0.5047278
174	0x3d9220f9	0.07135195
175	0xbd96aa2f	-0.07356679
176	0xbda79f6b	-0.081847034
177	0x3d0439b1	0.03228158
178	0xbd8f2ab1	-0.069905646
179	0xbf88ca15	-1.068667
180	0xbdc05486	-0.093911216
181	0x3f094aad	0.5362957
182	0x3e1dedb1	0.15422703
183	0x3f3a121c	0.7268388
184	0xbe950cbb	-0.29111275
185	0x3e8be11c	0.27320182
186	0x3e0c5f82	0.13708308
187	0x3f6a0a41	0.91421896
188	0xbd3cd724	-0.04610361
189	0xbddd6daa	-0.108119324
190	0x3de4c14d	0.11169682
191	0x3e53b379	0.20673932
192	0x3e9443df	0.28958032
193	0xbd83fdc8	-0.06444889
194	0xbedb5b0c	-0.428429
195	0xbf789dda	-0.9711586
196	0x3ea0d6bf	0.31413838
197	0x3e50ce13	0.20391111
198	0xbdddc4d7	-0.1082856
199	0x3dd2483e	0.10267685
200	0xbed97899	-0.4247482
201	0x3edf2d92	0.43589455
202	0xbf6b9cf5	-0.9203637
203	0x3e8c29bc	0.2737559
204	0x3f836013	1.0263695
205	0x3eea0313	0.4570547
206	0x3e1965c5	0.14980228
207	0xbea4b873	-0.32171974
208	0xbea46f28	-0.32116055
209	0x3d2f705d	0.042831767
210	0xbf071b6c	-0.5277622
211	0xbe8a8457	-0.27054092
212	0x3ef9364a	0.48674232
213	0x3ef7832c	0.48342264
214	0x3e252971	0.1612909
215	0xbd9d3ba6	-0.07677393
216	0x3e048789	0.12942328
217	0x3e8ea192	0.27857643
218	0x3f3958b2	0.72400963
219	0xbe7009ca	-0.23441234
220	0xbf80d7dd	-1.0065876
221	0xbf302813	-0.6881115
222	0x3e4a72df	0.19770382
223	0xbefc20b0	-0.4924369
224	0x3ec3aa9d	0.38216105
225	0x3d8c692e	0.06855999
226	0x3de65cef	0.112481944
227	0x3f100e86	0.5627216
228	0xbf0d1dc9	-0.55123574
229	0xbe4c8ca9	-0.19975533
230	0x3f1e138a	0.61748564
231	0x3db14e5c	0.08657524
232	0xbe898a69	-0.2686341
233	0xbd7b6fed	-0.061386038
234	0xbead4b8e	-0.33846706
235	0xbf2d3b96	-0.67669046
236	0x3e8a74bf	0.27042195
237	0x3e82975b	0.255061
238	0x3dbf2a71	0.09334267
239	0x3ea9b170	0.33143187
240	0x3e1a607e	0.15075871
241	0xbd5c47e4	-0.053779498
242	0xbf0ae9e2	-0.54263127
243	0xbf4116ed	-0.75425607
244	0x3f02b439	0.5105625
245	0x3e1f982e	0.15585396
246	0x3dd01072	0.10159387
247	0xbd9eabd5	-0.07747618
248	0x3f423e75	0.7587655
249	0x3e7be9df	0.24600933
250	0x3f14d344	0.58134866
251	0x3f3ac2a4	0.7295325
252	0xbf566916	-0.837541
253	0xbeb3847b	-0.35062012
254	0x3ed688a6	0.4190113
255	0xbe94282a	-0.28936893

actor_common.bias f4 [128]
0	0xbde34126	-0.110964105
1	0x3ec87262	0.39149767
2	0xbd5f04e4	-0.054448023
3	0x3e815292	0.2525831
4	0xbdaebd79	-0.08532233
5	0x3ec5f0ae	0.38660187
6	0xbea5dc05	-0.32394424
7	0x3d9729e3	0.07381036
8	0x3eb80d12	0.35947472
9	0x3ec8d12a	0.3922208
10	0xbda15839	-0.07878155
11	0x3ccc8d23	0.024969643
12	0xbe1801e0	-0.14844465
13	0xbeb20fb5	-0.3477761
14	0xbecb9fb1	-0.39770272
15	0x3d123298	0.03569278
16	0xbeab0846	-0.3340475
17	0xbdec33da	-0.115333274
18	0x3ec260ea	0.37964565
19	0xbe7c0dda	-0.24614659
20	0xbe5f1b25	-0.21787699
21	0x3d54818a	0.05188135
22	0xbdb9b59b	-0.090678416
23	0x3edbfaf4	0.429649
24	0x3c4ce4f9	0.012505763
25	0x3e71a299	0.23597182
26	0x3e6c26b8	0.23061645
27	0xbdc54ce4	-0.09633806
28	0x3bf7a54c	0.0075575467
29	0x3dcf9eba	0.101376966
30	0xbd268eca	-0.040663518
31	0x3d08cdd4	0.033399418
32	0x3ecc30f9	0.39881113
33	0x3e2e5505	0.1702462
34	0x3de75d95	0.11297146
35	0xbe51d625	-0.20491846
36	0x3e8504df	0.2598028
37	0xbddcff9f	-0.10790943
38	0x3e3f8b8a	0.18705574
39	0xbbe19fb4	-0.006885493
40	0xbee33b89	-0.4438136
41	0x3ecb414a	0.3969825
42	0x3e05318a	0.13007179
43	0x3ec890bc	0.39172924
44	0xbd51c35c	-0.0512117
45	0xbef36e50	-0.475451
46	0x3ec54b45	0.3853399
47	0x3effedfa	0.4998625
48	0xbea09ed6	-0.31371182
49	0x3d410351	0.047122303
50	0xbe2ad0b4	-0.16681176
51	0xbea1982b	-0.31561407
52	0xbe774b47	-0.2414981
53	0xbeb4cb41	-0.3531132
54	0xbda967eb	-0.08271774
55	0xbf17631c	-0.59135604
56	0xbeb3c1f9	-0.35108927
57	0x3da59ffb	0.080871545
58	0xbd3d00e0	-0.046143413
59	0xbd99a21c	-0.07501623
60	0x3f02cf3c	0.51097465
61	0xbdb0ab2a	-0.08626397
62	0xbef2f933	-0.4745575
63	0x3d1e29ea	0.03861419
64	0xbee6f181	-0.45106128
65	0x3cd9699a	0.026539613
66	0xbdc35ee5	-0.09539584
67	0x3cf621a6	0.030045342
68	0xbea3dad8	-0.32002902
69	0xbe87446e	-0.26419395
70	0xbdc5e2e4	-0.096624166
71	0xbe2971e3	-0.1654735
72	0xbdedb3d7	-0.11606567
73	0x3c925146	0.01786102
74	0xbed317b1	-0.41229013
75	0xbdcbe5de	-0.09955953
76	0xbca520ab	-0.020157179
77	0x3e2f3cd9	0.17113055
78	0xbe9c8444	-0.3056966
79	0x3e8b4ab6	0.27205437
80	0xbd86b091	-0.06576646
81	0x3d23758d	0.039907027
82	0xbd6f1727	-0.05837169
83	0xbe9df7ee	-0.30853218
84	0x3e2c1ac0	0.1680708
85	0xbe5cbaf2	-0.21555689
86	0x3ea33221	0.31874183
87	0xbe083458	-0.13301218
88	0x3e9181f2	0.28419453
89	0xbed2f171	-0.4119983
90	0xbe8101fd	-0.2519683
91	0xbcc740a0	-0.024322808
92	0x3e000039	0.12500085
93	0xbecc27ec	-0.39874208
94	0xbec164ec	-0.3777231
95	0x3c6ca7fc	0.0144443475
96	0x3de79926	0.113085076
97	0xbeaec5a5	-0.34135166
98	0xbecd9f86	-0.4016077
99	0x3de27847	0.11058097
100	0x3e88dbd1	0.26730207
101	0xbd07bf70	-0.033141553
102	0x3e9d98c1	0.30780604
103	0xbf089feb	-0.53369015
104	0xbea84c1b	-0.32870564
105	0x3ef9547c	0.4869727
106	0x3c47ce88	0.012195237
107	0xbe904fb0	-0.28185797
108	0xbcd797ab	-0.026317438
109	0xbdc9ed67	-0.09859734
110	0xbe1b487b	-0.15164368
111	0xbeb10529	-0.3457425
112	0x3da0af5c	0.07845947
113	0x3ec02117	0.37525246
114	0xbeb21e4b	-0.34788737
115	0xbe985d86	-0.29758853
116	0x3db3cf19	0.08779735
117	0x3dea8a37	0.11452144
118	0x3d9e7651	0.07737411
119	0xbdbfd99d	-0.09367678
120	0x3d1e29a7	0.03861394
121	0xbe82b217	-0.25526497
122	0x3de8b15c	0.113619536
123	0xbbce67a9	-0.0062989783
124	0xbc8e7413	-0.017389333
125	0x3eb6ab33	0.3567749
126	0xbe071f3c	-0.13195509
127	0x3d58359e	0.05278551

actor_action.weight f4 [4, 128]
0	0xbe15e284	-0.1463719
1	0xbda30301	-0.07959557
2	0xbdfff0be	-0.1249709
3	0xbe2af1df	-0.16693829
4	0xbeae7140	-0.34070778
5	0x3ed9caa0	0.42537403
6	0x3eb4e283	0.35329065
7	0x3d0ced9e	0.034406297
8	0x3f5ae188	0.85500383
9	0x3f0b1ca8	0.543406
10	0xbcef9f0c	-0.029250644
11	0x3cf8be20	0.030364096
12	0xbe6a536a	-0.22883382
13	0x3db870a9	0.09005863
14	0x3e97255a	0.29520684
15	0x3ecf45df	0.40482995
16	0xbe97558d	-0.29557458
17	0x3d916b49	0.07100541
18	0x3ebc5da9	0.36790207
19	0xbd51a207	-0.051179912
20	0xbe938ec9	-0.28819874
21	0xbe0c246d	-0.1368577
22	0xbe13e967	-0.14444505
23	0x3f043ddb	0.51656884
24	0xbe168944	-0.147008
25	0x3e8be228	0.2732098
26	0x3e36dc2f	0.17857431
27	0xbdfce4b5	-0.1234831
28	0x3dee2ee6	0.11630039
29	0x3d9a37b1	0.075301535
30	0xbe1a7886	-0.15085039
31	0x3d946bb4	0.07247105
32	0x3e5ab3ee	0.213577
33	0x3e89b0b4	0.26892626
34	0xbe808a7f	-0.25105664
35	0xbdad2f95	-0.08456341
36	0x3da72403	0.081611656
37	0xbe845c14	-0.258515
38	0x3dea3d0e	0.114374265
39	0xbeb063f4	-0.34451258
40	0x3d825b31	0.0636505
41	0x3f440f4d	0.7658585
42	0xbe57b677	-0.21065699
43	0x3ec4b72b	0.38420996
44	0x3d2f5c30	0.042812526
45	0xba0f6c0c	-0.00054711173
46	0x3dbfc5b4	0.09363881
47	0x3ee2aa88	0.4427073
48	0xbd83458e	-0.06409751
49	0x3e64bc21	0.2233739
50	0x3ec43251	0.38319638
51	0x3c663975	0.014051785
52	0xbe7adec9	-0.24499048
53	0x3ce5cc59	0.028051542
54	0xbe4acd58	-0.19804895
55	0xbccbe3ae	-0.02488884
56	0x3da1df5b	0.0790393
57	0x3eddcb9e	0.4331941
58	0xbc609da4	-0.013709459
59	0x3e91d13d	0.2847995
60	0x3e8c67e4	0.27423012
61	0x3d818d78	0.06325811
62	0x3e847f50	0.25878382
63	0xbe08ad2c	-0.1334731
64	0xbdcf9345	-0.10135511
65	0xbe88fa67	-0.26753542
66	0x3c79c136	0.015243819
67	0x3c289ea4	0.010291729
68	0xbd948f27	-0.07253867
69	0xbe435d3d	-0.19078536
70	0xbc958470	-0.018251628
71	0xbeb2ce5c	-0.34923065
72	0xbebddfee	-0.37084907
73	0xbe77ca38	-0.24198234
74	0x3e8a6223	0.27027997
75	0xbb80c562	-0.00392978
76	0xbe9d91fd	-0.30775443
77	0xbd0ae523	-0.033909928
78	0x3ee6cd55	0.4507853
79	0x3eaa5e93	0.3327528
80	0x3de4cfa4	0.11172417
81	0xbe8af06c	-0.27136552
82	0x3e9cebe3	0.30648717
83	0x3ed58464	0.4170257
84	0x3e007045	0.12542827
85	0xbeac32a8	-0.33632398
86	0x3eb15024	0.34631455
87	0x3e814b32	0.25252682
88	0x3e5c0673	0.21486835
89	0xbdb474e5	-0.08811358
90	0xbe5f8d66	-0.21831283
91	0xbe9e4d1f	-0.30918214
92	0xbe06f1b0	-0.13178134
93	0xbdc13112	-0.094331875
94	0xbdb2e2be	-0.08734654
95	0xbdfb3de5	-0.12267665
96	0x3d710180	0.05883932
97	0x3e0a03ad	0.13477965
98	0x3cd8d41c	0.02646833
99	0xbe0e245d	-0.13881059
100	0xbcb354f5	-0.021891097
101	0xbdc7a9ea	-0.097492054
102	0x3e8743bc	0.26418865
103	0xbc903808	-0.017604843
104	0x3d84fa0a	0.06493004
105	0x3f030d6e	0.5119237
106	0xbebeece3	-0.37290105
107	0x3d3fd51b	0.046834093
108	0xbe517305	-0.20454033
109	0x3e8ed0ca	0.27893668
110	0x3ed741cc	0.42042387
111	0xbd4b5934	-0.049645618
112	0x3e977d3b	0.2958773
113	0x3f786619	0.9703079
114	0x3da64239	0.081181
115	0x3daac4cf	0.083383195
116	0xbebe4189	-0.37159374
117	0x3e9d03bc	0.30666912
118	0x3ee83689	0.45354107
119	0xbe61dcd6	-0.22056898
120	0x3df96931	0.12178267
121	0x3ce32874	0.02772925
122	0x3f42136c	0.75810885
123	0x3edaeee6	0.4276039
124	0x3edccc07	0.4312441
125	0x3e83f48c	0.25772512
126	0x3e5eedc6	0.21770391
127	0x3a35d318	0.00069360575
128	0x3ef25924	0.47333634
129	0xbf0594c6	-0.52180135
130	0xbe26a607	-0.16274272
131	0x3ece701d	0.4031991
132	0x3e85d229	0.26136902
133	0xbe8c290d	-0.2737507
134	0x3e6fb3c6	0.23408422
135	0x3efa982e	0.4894423
136	0xbee41e40	-0.4455433
137	0xbdef7d6b	-0.116938435
138	0x3e37c20c	0.17945117
139	0xbf145414	-0.57940793
140	0x3e5a9527	0.2134596
141	0x3d8a885f	0.06764292
142	0x3e32cc59	0.17460765
143	0x3ec21149	0.37903813
144	0x3abe718e	0.0014529692
145	0xbf127fc4	-0.57226205
146	0x3d7a7d82	0.06115485
147	0x3f002d1c	0.5006883
148	0xbd09c2d0	-0.033633053
149	0x3e8fcebc	0.28087413
150	0xbea71b65	-0.32638088
151	0xbabd8009	-0.0014457713
152	0xbe9ceaea	-0.30647975
153	0xbf40dabe	-0.75333774
154	0xbf265250	-0.6496935
155	0x3f0a1be3	0.539488
156	0x3ed74611	0.42045644
157	0xbec52651	-0.38505796
158	0xbec36c76	-0.38168687
159	0x3f65dc00	0.8978882
160	0x3ec94271	0.39308503
161	0x3e3e546c	0.18586892
162	0x3eb16c79	0.3465307
163	0x3e558a7a	0.20853606
164	0x3ee17898	0.44037318
165	0xbe78fa77	-0.24314295
166	0x3f00c4b6	0.5030016
167	0x3e8d6ca0	0.27621937
168	0x3e12d4fe	0.14339063
169	0xbeba280c	-0.36358678
170	0x3d2bfd5a	0.04198966
171	0xbe94cdf3	-0.29063377
172	0x3e47f6b2	0.195277
173	0xbbae4d84	-0.005319299
174	0x3e5b3574	0.2140711
175	0x3eadcc56	0.33944958
176	0xbc90e26b	-0.01768609
177	0x3e3faec2	0.18719009
178	0x3e07f70b	0.13277833
179	0xb9ac3e30	-0.0003285273
180	0xbdaacf54	-0.08340326
181	0xbe747608	-0.2387315
182	0xbd3b46ea	-0.045721926
183	0x3ccfedf4	0.02538202
184	0x3da124e1	0.07868362
185	0x3e9fd65d	0.31218234
186	0xbf13db7d	-0.5775679
187	0xbeaaa575	-0.3332936
188	0xbf33bdd9	-0.7021156
189	0xbcab4ff3	-0.020912146
190	0xbd21c6d4	-0.039496258
191	0x3df5fa98	0.120106876
192	0x3b24d560	0.0025151595
193	0xbe4e0e4a	-0.20122638
194	0xbd6c1391	-0.057635847
195	0x3e130715	0.1435817
196	0xbe343670	-0.17598891
197	0x3dfd47e1	0.123672254
198	0xbf109878	-0.5648265
199	0xbb110d40	-0.0022133142
200	0x3c53937a	0.012913579
201	0x3e470cd9	0.19438495
202	0xbe9eae89	-0.30992535
203	0x3d40d7ff	0.04708099
204	0x3f2ad544	0.6673167
205	0x3ed5bd62	0.4174605
206	0xbd86a25d	-0.06573937
207	0x3dbc7c5f	0.092034094
208	0x3f15c5d1	0.5850497
209	0x3c8f653a	0.017504323
210	0x3e5e6364	0.21717602
211	0xbe18386c	-0.14865273
212	0x3ee2b95c	0.44282043
213	0xbe4ca595	-0.1998504
214	0x3dc2e99b	0.09517213
215	0x3ba74f85	0.005105915
216	0xbe5c97e8	-0.21542323
217	0xbc517458	-0.012784086
218	0x3eb0dc13	0.34542903
219	0x3e9ac54e	0.30228657
220	0x3ef4c1ea	0.47804195
221	0x3d76b8e1	0.060234908
222	0xbcdefe83	-0.02722097
223	0xbe0ad3c7	-0.13557349
224	0x3ed62e4d	0.418322
225	0xbe5cca2f	-0.21561502
226	0xbd8cb163	-0.06869771
227	0x3e82cd16	0.25547093
228	0xbf112404	-0.5669558
229	0x3e464c56	0.19365057
230	0xbf14b85c	-0.5809381
231	0xbd5e3937	-0.054253783
232	0xbd7b0e82	-0.061293133
233	0x3e463ca9	0.19359078
234	0x3eb27d22	0.34861094
235	0x3dbc73ee	0.09201799
236	0xbbe0d03a	-0.00686076
237	0xbef808c6	-0.48444194
238	0xbd34c4ff	-0.044133183
239	0x3cb803a0	0.022462666
240	0x3d8494a6	0.06473665
241	0x3e269789	0.16268744
242	0xbe637a57	-0.22214638
243	0xbd82de2f	-0.063900344
244	0xbe998327	-0.29982874
245	0xbe324eb4	-0.17412835
246	0x3ec8ef89	0.3924525
247	0xbef52f03	-0.4788743
248	0x3e6fde78	0.23424709
249	0x3e52b39d	0.2057633
250	0xbe06f219	-0.1317829
251	0xbd3978d5	-0.04528125
252	0x3de5d2fc	0.11221883
253	0xbeda3d4b	-0.42624888
254	0xbc5ce024	-0.013481174
255	0xbf52a2a5	-0.82279426

actor_action.bias f4 [4]
0	0x3e9ec65e	0.31010717
1	0xbd9136cc	-0.0709053
2	0xbc25b713	-0.010114449
3	0xbe578554	-0.21046954

critic_value.weight f4 [1, 128]
0	0x3d506f18	0.050887197
1	0xbc86094e	-0.016361859
2	0x3da2336e	0.07919966
3	0x3cf21fb3	0.029556131
4	0x3d6e4332	0.05816955
5	0x3cdbcd37	0.026831253
6	0x3d87632d	0.06610713
7	0x3d6f03fe	0.058353417
8	0xbc3eb3cd	-0.0116395475
9	0x3c5498dc	0.012975898
10	0x3d46e624	0.048559323
11	0xbd6caca4	-0.05778183
12	0x3cf4b1c0	0.029869914
13	0xbdac7bfc	-0.08422086
14	0xbd9c2e85	-0.076260604
15	0xbc1b5317	-0.009480259
16	0xbd87fb75	-0.066397585
17	0x3d82016d	0.06347928
18	0x3d449ee3	0.04800309
19	0x3d2640cd	0.040589143
20	0x3bba0733	0.0056771277
21	0x3cc2076c	0.02368518
22	0x3ccd8e7d	0.025092358
23	0x3d27a34b	0.040927213
24	0x3d8ec74a	0.06971605
25	0x3db31ed9	0.08746118
26	0x3ca31e47	0.019911898
27	0x3b8b3af4	0.004248971
28	0xbd500296	-0.050783716
29	0xbd8e4b7c	-0.06947991
30	0x3c0a9c9b	0.008460189
31	0xbd698775	-0.057013948
32	0x3d51bb2e	0.0512039
33	0x39bc0358	0.00035860646
34	0x3c8ca1b3	0.017166948
35	0x3cf0f3d1	0.029413136
36	0xbce4e952	-0.027943287
37	0xbca442bc	-0.020051353
38	0xbd5fecce	-0.054669194
39	0x3c38ad1d	0.011271742
40	0x3d8ee601	0.069774635
41	0xbd45019e	-0.048097245
42	0xbcfe0305	-0.0310073
43	0x3db150c2	0.086579815
44	0x3cb820f4	0.02247665
45	0x3db4c255	0.088261284
46	0x3d9652bd	0.0734
47	0x3cc47591	0.023981841
48	0x3c189938	0.009313874
49	0xbbf6258e	-0.007511801
50	0x3d667b9e	0.056270234
51	0x3d7c3fd2	0.0615843
52	0xbd164ad7	-0.036692467
53	0xba9dd7f8	-0.0012042513
54	0xbd1af680	-0.037832737
55	0x3dabd5c4	0.08390382
56	0xbbc42b41	-0.0059866016
57	0x3c440e21	0.011966259
58	0xba2728b0	-0.00063766073
59	0x3dac6690	0.08418
60	0xbd8d036b	-0.068854176
61	0xbc528bca	-0.012850711
62	0x3d2dd270	0.042437017
63	0xbd4232d8	-0.04741177
64	0x3c26af6b	0.010173659
65	0x3c64919e	0.0139507335
66	0x3d0b5a55	0.034021694
67	0xbc384dec	-0.011249047
68	0xbd959bf9	-0.0730514
69	0x3daf16e3	0.08549287
70	0xbd8906d1	-0.06690753
71	0xbd3963fb	-0.045261364
72	0x3da7a378	0.08185476
73	0xbdb4199f	-0.08793949
74	0xbd9f92e8	-0.07791692
75	0x3da5c5c4	0.080943614
76	0x3c902cda	0.017599512
77	0xbd0c31e9	-0.034227286
78	0x3dacf3b6	0.08444922
79	0xbd87f288	-0.06638056
80	0x3cff6936	0.031178098
81	0xbcee20fa	-0.029068459
82	0x3cc789e1	0.024357738
83	0xbdafe839	-0.08589215
84	0xbd989423	-0.0745013
85	0x3da8a565	0.082346715
86	0xbcf67499	-0.030084895
87	0x38f716f1	0.00011782151
88	0x3bc29cb6	0.0059390916
89	0xbd4120b5	-0.047150332
90	0x3d176f84	0.036971584
91	0x3bcb061e	0.0061957976
92	0xbc69a1d5	-0.014259775
93	0x3d44e728	0.04807201
94	0x3c8311f1	0.015999766
95	0x3d9ae50c	0.075632185
96	0x3acc29cc	0.0015576421
97	0x3d8f5633	0.06998863
98	0x3bb983c4	0.0056614596
99	0x3d830e0e	0.06399165
100	0xbd9c799d	-0.076403834
101	0xbd69f580	-0.057118893
102	0x3c7bc20b	0.015366088
103	0x3d927758	0.07151669
104	0xbd1a854f	-0.03772479
105	0xbd910026	-0.070801064
106	0xbd7bbb3c	-0.061457857
107	0xbd1d9c46	-0.038479112
108	0x3cdc839b	0.026918223
109	0xbd864faf	-0.06558167
110	0x3d2e7e85	0.042601127
111	0xbd1c8588	-0.038213283
112	0xbc1dff20	-0.009643346
113	0xbc5191c8	-0.012791105
114	0x3d94bbe0	0.07262397
115	0xbc56e15f	-0.013115256
116	0xbd8a730e	-0.06760226
117	0x3d5d7591	0.0540672
118	0xbca48d61	-0.020086946
119	0xbd93f823	-0.07225063
120	0x3da62c06	0.081138656
121	0x3d923c5d	0.0714042
122	0x3d9b743f	0.075905316
123	0xbd596f6f	-0.053084787
124	0xbd8edb16	-0.06975381
125	0xbd834ee6	-0.06411533
126	0x3c9adfd5	0.01890556
127	0x3d32f3f5	0.043689687
